…
ionInfo":{"status":"ok","timestamp":1704229701617,"user_tz":-60,"elapsed":277,"user":{"displayName":"Dilshod Durdiev","userId":"07300884341727331244"}},"outputId":"9beeed0c-9feb-49a4-97f4-6b33cf7bcc38"},"execution_count":91,"outputs":[{"output_type":"execute_result","data":{"text/plain":["==========================================================================================\n","Layer (type:depth-idx)                   Output Shape              Param #\n","==========================================================================================\n","TinyVGG                                  [1, 3]                    --\n","├─Sequential: 1-1                        [1, 10, 32, 32]           --\n","│    └─Conv2d: 2-1                       [1, 10, 64, 64]           280\n","│    └─ReLU: 2-2                         [1, 10, 64, 64]           --\n","│    └─Conv2d: 2-3                       [1, 10, 64, 64]           910\n","│    └─ReLU: 2-4                         [1, 10, 64, 64]           --\n","│    └─MaxPool2d: 2-5                    [1, 10, 32, 32]           --\n","├─Sequential: 1-2                        [1, 10, 16, 16]           --\n","│    └─Conv2d: 2-6                       [1, 10, 32, 32]           910\n","│    └─ReLU: 2-7                         [1, 10, 32, 32]           --\n","│    └─Conv2d: 2-8                       [1, 10, 32, 32]           910\n","│    └─ReLU: 2-9                         [1, 10, 32, 32]           --\n","│    └─MaxPool2d: 2-10                   [1, 10, 16, 16]           --\n","├─Sequential: 1-3                        [1, 10, 8, 8]             --\n","│    └─Conv2d: 2-11                      [1, 10, 16, 16]           910\n","│    └─ReLU: 2-12                        [1, 10, 16, 16]           --\n","│    └─Conv2d: 2-13                      [1, 10, 16, 16]           910\n","│    └─ReLU: 2-14                        [1, 10, 16, 16]           --\n","│    └─MaxPool2d: 2-15                   [1, 10, 8, 8]             --\n","├─Sequential: 1-4                        [1, 3]                    --\n","│    └─Flatten: 2-16                     [1, 640]                  --\n","│    └─Linear: 2-17                      [1, 3]                    1,923\n","==========================================================================================\n","Total params: 6,753\n","Trainable params: 6,753\n","Non-trainable params: 0\n","Total mult-adds (M): 7.21\n","==========================================================================================\n","Input size (MB): 0.05\n","Forward/backward pass size (MB): 0.86\n","Params size (MB): 0.03\n","
…
